siver_model.pth (torch, 440645 bytes, 6 tensors)

model.1.weight f4 [128, 784]
00000000: 1248 0f3d f4f6 5a3c 825f 483c 14c8 5d3c
00000010: b6d4 843c a63e 59bc e064 db3c 8c17 813c
00000020: d804 b63c bff9 0d3d 703f 32bc 69cb 28bb
00000030: a430 0c3d f6a3 80bc 8524 063d 7e9a fdbb
00000040: 3819 30bc 5ad8 233c a1c8 923a 11a2 93bb
00000050: 3848 9b3c c8a9 c43c 6c01 75bc 35d3 5dbb
00000060: b1f4 bbbb 384d fa3c 53b5 093d bcff 183d
00000070: 1eef 9f3c 92ac afbc c077 9e3c 31c4 bcbb
00000080: 897e b53b 2840 933c 8e1e eabc b382 c6bc
00000090: 652f e23c 3cf0 59bc 2ccc bc3c adfc 71bc
000000a0: 3f1e c93c ad2f 43bc b518 183d 7121 633c
000000b0: e41f 2a3d e8fe 23bc 7ce3 05bb fe5b 3f3a
000000c0: ff43 26bb 3f48 c4bc 63a2 eebc 7a47 39bc
000000d0: bf82 e13a 5bc1 efbb 5cb8 3e3c 38c3 cabc
000000e0: edf2 f2bc beb0 e33c ca65 2bbc 6f7d ebbc
000000f0: c944 69bb 4226 adbc 6a4c 99ba fdc2 553c
00000100: e491 3dbb eba1 2a3d fc99 b93b cd26 9dbc
00000110: 59db 003d fbf2 553d 7202 6b3b cf7c 2fbc
00000120: c1f7 3a3d 7343 293d 1853 363b 96ee 8abc
00000130: c50b 733b 1d0e 28bc d0cc b4bc 014d f33c
00000140: ccbf 5d3b 99b6 fe3c 2bde d43a 9a4c 2c3a
00000150: 7a50 ce3c a0d2 9ebc 2006 05bc f59e 0e3c
00000160: df9d 86bb e818 983c 8cff c03c 0cef 0bbc
00000170: 4efb 0ebd 66e7 3f3d a235 523a 9a5e 9e3c
00000180: 505e 04bd a4a8 85bc 8c1c a2bc ef19 813c
00000190: 0bda 323c facb 923b 8299 c33c de2d bb3b
000001a0: 16f2 043d 6633 1c3d 2fa7 503d 61c3 09bc
000001b0: bebf 763c a2d5 63bb 3398 123d 568a dc3c
000001c0: 22d1 f6bb 8847 033d 88ad 00bd 23f6 d0bc
000001d0: e65f 5e3c 44ba f7bc 7914 573b ad29 fcbc
000001e0: 22c6 78bd 911c f1bc e416 b73c c3fc 1abd
000001f0: d4b4 973c 6f2e 873d 44b9 df3d 5e45 a03d
00000200: 6fa3 023e 3445 1d3e 35d8 5c3c 6a41 353c
00000210: 33da 3e3c 5a29 fb3c cd93 043d 8850 b63c
00000220: c502 41bc 7d83 cbbc ea6c c5bc f679 783c
00000230: 1996 f43b 40d9 9cbc a51b dd3c 68a8 dfbc
00000240: 6573 bb3c ec56 44bc 63da 84bd ef1c d3bd
00000250: bfd4 4fbd 951a 0abd 4af8 6bbd 8efa 05bc
00000260: c759 a03d 47f2 20bb ee60 ae3c 2745 5b3d
00000270: 9dbe cd3d 8980 0a3e 7675 c63d 728d c33d
00000280: 7241 2a3d 834b 4b3d 9354 1a3d a6b8 863c
00000290: e39b 403d 767d 74bc c836 2b3c 8d23 523c
000002a0: 149f ac3c a68c 433c 9a0e aa3a 4279 30bc
000002b0: 2d68 35bd ecc4 1fbd 233b 06be 0b39 abbd
000002c0: d19e 0abd 1480 c8bc 661e 27bd 57eb c6bd
000002d0: 750b c3bd a9b7 39be f33d 2ebe 6a10 a0bd
000002e0: 4067 74bd ed21 61bd 4d87 a2bd 1f4f b93b
000002f0: 50a8 0abd 3565 79bd c7aa 083d 3b69 4d3d
00000300: 843e 4f3c 9da8 5f3c ccba d83b 718e c5bc
00000310: 98ad e03c aacf d1bc d540 a2bc 4fa6 27bd
00000320: 99b5 05bd 7475 98bd f8a4 ecbd 6adc 67bd
00000330: c03c ed3c 8530 963c 7d8f 4fbd a1c5 55bd
00000340: c7d5 06be 5a61 16be fbda 34be 1ac2 bcbd
00000350: dfea 04be 1373 7ebd 2815 f5bb bacf afbc
00000360: a6ba dcbd 79fc 25bc 4fec 493d 1089 3e3d
00000370: 69db 62bc 9605 debb 40db d2ba 422a e93c
00000380: 6123 563c 22ff 723c 7cff 413b a890 2bbd
00000390: e5c7 01bd 024a d5bd da4e 91bd e1e1 073c
000003a0: 1389 81bc 950a 6a3d d148 813b a2d6 2438
000003b0: b68e 113c 206b 49bc 657f f7bd 8f9b afbd
000003c0: 002f 8cbc 7389 933c c257 9abd 32ff a6bc
000003d0: f4e1 43bd 906d 47bd d46d 61bc 0af6 4b3d
000003e0: bcd1 4b3c 5624 233d a441 163d a1fd cb3a
000003f0: c804 2dbc e214 053c e274 32bb 85b0 0dbd
0.03498084 0.013364542 0.012229802 0.013536472 0.01621471 -0.013259565 0.0267815 0.015758298
0.022219107 0.034662005 -0.0108793825 -0.0025756008 0.034226075 -0.015703183 0.03274967 -0.007739364
-0.0107482 0.010000313 0.0011198708 -0.004505404 0.018955335 0.02400674 -0.014953952 -0.0033847813
-0.0057359566 0.030554399 0.03362019 0.037353262 0.0195232 -0.021444593 0.01934421 -0.0057606925
0.005538766 0.017974928 -0.028579023 -0.024232244 0.02761049 -0.013301905 0.023046575 -0.014769715
0.024550555 -0.011913222 0.037132937 0.0138629535 0.04153432 -0.010009505 -0.002042978 0.00072997797
-0.0025370119 -0.02396023 -0.029130166 -0.011308545 0.0017205103 -0.007316751 0.011640634 -0.02475129
-0.029656852 0.027794238 -0.01046128 -0.028746335 -0.0035593978 -0.021136407 -0.0011695747 0.013046977
-0.002892607 0.041658323 0.0056641083 -0.01918354 0.031459186 0.052233677 0.0035859612 -0.010710909
0.045646433 0.04132409 0.0027820524 -0.01695947 0.0037085873 -0.010257271 -0.022070318 0.029699804
0.0033836244 0.031092929 0.0016240528 0.0006572694 0.025184859 -0.019387543 -0.008119136 0.0087048905
-0.004108175 0.018566564 0.023559354 -0.00854088 -0.03490763 0.046851538 0.0008018856 0.019332219
-0.032316506 -0.016315766 -0.019789003 0.015759436 0.010916243 0.0044798823 0.02387691 0.005712255
0.032457434 0.038134955 0.05094069 -0.008408398 0.015060363 -0.0034764786 0.03578968 0.026921432
-0.007532255 0.03205064 -0.031415492 -0.025507992 0.013572669 -0.030240186 0.00328186 -0.030781591
-0.06073583 -0.029432567 0.022349782 -0.03783871 0.018518843 0.066006534 0.109240085 0.07825731
0.12757657 0.1535843 0.013479282 0.011062959 0.011648702 0.030659366 0.032367516 0.022255197
-0.011780445 -0.024842972 -0.024099786 0.0151657965 0.007464182 -0.019146562 0.026990721 -0.027301982
0.022882173 -0.011983614 -0.064869665 -0.10308253 -0.05074 -0.033716757 -0.057609834 -0.008177413
0.07829624 -0.002455847 0.021286454 0.053532746 0.10046122 0.13525595 0.09690373 0.09548463
0.04156632 0.04963256 0.037678313 0.01644547 0.047023665 -0.01492249 0.010450073 0.012825859
0.021071948 0.011935389 0.0012974322 -0.010771098 -0.044288803 -0.03900616 -0.13108496 -0.083604895
-0.033842865 -0.024475135 -0.040800475 -0.09712856 -0.0952367 -0.18136467 -0.17015819 -0.07815631
-0.05966878 -0.054963995 -0.07935963 0.005655184 -0.03385192 -0.060887534 0.03336599 0.050149184
0.012649182 0.01365104 0.006614065 -0.024115773 0.027426526 -0.025611717 -0.019806305 -0.04093009
-0.03264389 -0.074442774 -0.11554903 -0.056606688 0.028959632 0.018333683 -0.05067395 -0.052190427
-0.13167487 -0.14685574 -0.1766166 -0.092167094 -0.12980221 -0.062121462 -0.0074793287 -0.021461356
-0.10777788 -0.010130995 0.049297627 0.04651743 -0.013846257 -0.0067755682 -0.001608707 0.028462533
0.013069958 0.014831336 0.0029601743 -0.041886 -0.031684775 -0.104145065 -0.07095118 0.0082936
-0.015812432 0.057138998 0.003945448 3.930054e-05 0.008884123 -0.012293607 -0.120848455 -0.08574592
-0.017112255 0.018009877 -0.0753627 -0.020385358 -0.047822908 -0.04868847 -0.013759095 0.049795188
0.012440141 0.039829575 0.036683694 0.0015563258 -0.010560222 0.008122655 -0.0027230312 -0.03459217

model.1.bias f4 [128]
00000000: e6b3 b53b 4efd da3c 97cc 15bd d1a8 693a
00000010: a256 3b3a a588 07bd 3a6c b83b 21c9 113b
00000020: a216 e43b a90b 96bc 98ae dfbc 72e1 0fbc
00000030: 73be 31bd 1333 3d3a 8dee 8cbc ca0c 0ebd
00000040: f245 93bc 655c 96bc d213 a5bc 1243 3d3d
00000050: ca1f 403d e9ed debc b704 36bc a488 56bd
00000060: 2fc5 0bbc 41b3 ab3c 1c7e d7bc cd78 1cbd
00000070: cb63 d1bc 6807 283c 3741 083d a09b 69bd
00000080: 8fea 47bd 5646 063c 44e5 dcbc 6b1e 0ebd
00000090: dcd8 13bd ba17 483c 99df 97bc e0e1 033d
000000a0: 8237 3fbd abe1 2ebc 912e 1dbd cfaf 793c
000000b0: db9b da3c 56ae 02bd f63d 19bd a5ce 11bd
000000c0: d179 99bc 2a9c b13c 7aea 1fbd 9d85 053d
000000d0: 2fec aebc a420 8b3c 39a7 15bd 22ac d4bc
000000e0: ae64 31bd 4e1e f4bc 5e35 eb3c cde9 0cbc
000000f0: 4b84 053d 6088 4a3c 600c 12bd f22c 9ebc
00000100: 57ea 06bc fed4 efbc e9b7 f43a 6023 a63c
00000110: 74f2 e53c c079 963b 7266 10bd 73f5 55bb
00000120: b7c4 843c b751 bc3c feed 0abd 8f47 3ebc
00000130: 68b4 cb3c 30fe 0abd 6414 e7bc 5499 b9bb
00000140: 839a 99bb 500e 1a3d 7876 07bd 5f0d 62bc
00000150: 252b 1ebd 489c c03c 82d3 01bd c806 b7ba
00000160: 24f3 40bc 633c 1dbd b663 c63c 6210 b03c
00000170: 3466 853c 7c1c 3cba d9c6 063d cfeb d0bc
00000180: 4c18 1bbd a816 aaba ee15 273c 9fd1 aeba
00000190: 0890 2e3c 7c2c 36bc b7fe 7b3c adb5 2a3d
000001a0: f81e a2bc 7ff5 273c 517a 0f3d 4c33 8b3c
000001b0: 37a9 ac3c 4cb0 febb f8a5 24bb 4329 5dbc
000001c0: 2543 d1bb 1aea 12bc 4c93 f73c 9d9f 4cbc
000001d0: 81e1 b53a 2f24 943c e296 653c 2cd8 0b3d
000001e0: 460a 85bc c0ff 1dbd f974 823b 0f46 e03c
000001f0: 7f9a 1a3d ff0c 973c 652b b5bb 5aa7 48bc
0.005545127 0.026732113 -0.036572065 0.00089134 0.0007146393 -0.0330893 0.005628136 0.0022245126
0.006960706 -0.018316107 -0.027304932 -0.008781778 -0.043394517 0.00072173885 -0.017203594 -0.034680165
-0.017977688 -0.018354604 -0.020151053 0.04620654 0.046905316 -0.027213054 -0.011109523 -0.052376404
-0.008530899 0.020959498 -0.02630525 -0.038201142 -0.02556028 0.010255672 0.03326532 -0.05703318
-0.048807677 0.00819548 -0.026964791 -0.034696978 -0.036095485 0.012212688 -0.018539237 0.032197833
-0.046683796 -0.010673921 -0.038374487 0.01523967 0.026685646 -0.03190454 -0.037412606 -0.035597462
-0.018734844 0.02168091 -0.039041974 0.032598127 -0.021352855 0.016983338 -0.03653643 -0.025960986
-0.043308906 -0.029799607 0.02871197 -0.008600664 0.032596868 0.012361616 -0.035656333 -0.019308541
-0.008234582 -0.029276367 0.0018670532 0.02028054 0.028069712 0.0045921504 -0.03525395 -0.003264752
0.016207082 0.022988183 -0.033918373 -0.011613741 0.024866298 -0.03393382 -0.028207965 -0.00566403
-0.0046876087 0.037611306 -0.033071965 -0.013797133 -0.038615365 0.02351202 -0.03169585 -0.0013963813
-0.011776719 -0.038387667 0.024217468 0.021492187 0.016284086 -0.00071758754 0.03290448 -0.025503067
-0.03786497 -0.0012976723 0.0101981 -0.0013337618 0.010654457 -0.011119004 0.015380553 0.041677166
-0.019790158 0.010251402 0.03502876 0.016992234 0.021076782 -0.007772481 -0.002512334 -0.013498607
-0.006386178 -0.008966947 0.030221604 -0.012489227 0.001387641 0.01808366 0.014013024 0.034141704
-0.01624025 -0.03857398 0.0039812294 0.027377157 0.037744995 0.018438814 -0.0055288547 -0.012246931

model.3.weight f4 [64, 128]
00000000: fa21 a9bd 8efc a03d 24f6 52bd 7960 debb
00000010: affd 14bc 3cdc 173d 875a 6e3d 6f89 883d
00000020: 9a1d 91bd b0d0 8b3d 8cc6 263d 9745 cebb
00000030: 7a30 ccbc 3fcd 3abd ec8c f6bd 5165 14bd
00000040: fa0b 653b ddea a33c eb83 65bd 54e1 3938
00000050: 9d01 0c3d 4981 aa3c fc76 34bd 132d 3c3d
00000060: 4a75 2bbc 182d 92bd 46a8 1abd 649e 663d
00000070: 7ddd e9b8 d575 32bd 0467 863a 7efc 443d
00000080: 0cc0 45bc 56d1 0a3d 0fe1 acbd c854 833b
00000090: 98ed 0a3d fe95 143c 099f 123d 6fee 6dbd
000000a0: 4461 183d 7170 633d 44b8 83bc 8b31 5fbd
000000b0: a688 a13c c9a0 803d 50d4 51bd bf92 03ba
000000c0: 1fba 9a3d 40c6 cabd 1d7c 343d d843 e3bd
000000d0: 3a32 b13c 3347 aebc eb46 55bd 6e80 a8bd
000000e0: e267 1f3d 5071 24bd 8e5e 28bc 358c b7bd
000000f0: 5a59 c9bd 5e22 81bd c69a 40bd 9514 1e3c
00000100: c9a6 21bd 4094 81bd 6c87 0abe 540f adbd
00000110: fa9f 9dbd 5acb 34bd fa14 48bb 171a 883d
00000120: c2ef 33bd 6732 18bd 01ff 8fbd aa56 073d
00000130: 0ca5 99bd 5472 5bbd 47a5 dbbd ae19 a2bc
00000140: 7d86 64bd 432e f1bd 48d3 49bd e53d 6bbd
00000150: a85f b0bc 08ef c2bd 150a 783d edcf e0bd
00000160: 172f 1bbd 0a38 d93c f1d3 69bd 28e1 a6bd
00000170: b430 923d 8592 443d b281 9dbd 8089 523d
00000180: 6900 d73b b816 7d3d cddb a3bd 9bba a53d
00000190: 9f5b 86bd 8984 dbbc 4590 663d dc54 17bd
000001a0: c37b 2cbd 6057 99bd 198a dbbc 8f87 e9bd
000001b0: aa20 3cbd 3b40 cabd 59d1 6dbd 52f1 74bd
000001c0: 4d58 b2bd 598a 083c 5fc7 99bd ff6d 353d
000001d0: da97 843d b517 6c3d 5f5c f3bd 5798 45bd
000001e0: 240c b2bc c44e 1a3c 5532 f1bc 0231 e0bd
000001f0: 8c5e a9bc 9112 d5bc 2300 ebbd 84ca 9bbd
00000200: de67 483d a6e9 5d3b 6e6b 2cbd 556a 62bc
00000210: 402b 2e3e 6166 8abc f023 243d e17e 0fbd
00000220: 8745 a5ba 3827 063d 442e e8bc 8976 5d3d
00000230: 9c5d abbd 31d8 67be 91d1 8a3d e1b9 803d
00000240: f26d f83c 5725 823d 23b3 9a3b d83b b93d
00000250: 64bf ebbd 4a74 563e eb05 2bbc b8a3 eebc
00000260: fef3 e33d a867 0a3e c8e2 2f3e a4a4 453d
00000270: 4988 323d 6d4c fe3b dd08 f3bc ddda 2abe
00000280: b388 cc3d 1fa7 0bbd 2d0b d2bc 776f b83d
00000290: 4015 b0be 0d05 643c 1881 f53d d4a9 90bc
000002a0: c49d 093d 0d52 703d 2cd3 8d3b 6e5b 1dbe
000002b0: 7af7 963d 97a3 6b3d 3c8d 86be 2b5a f63b
000002c0: 3a62 353c 766e 523e 91e6 96bd b288 f53c
000002d0: f29b 033d e8b8 8cbc d498 773d a057 3c3d
000002e0: 08c6 683d bd19 b3bd 9d79 9f3d f571 15be
000002f0: 695f 98bd 0f41 0abc 83de f9bc 739b a73d
00000300: 9b88 7e3d 4ac7 d43b ea9b 46bd 1fe8 c73d
00000310: 17c3 ab3b fa8b 963d 75f2 e2bc a682 50bd
00000320: db5c 203e 198f 2a3d 7be7 223d b5cd 073e
00000330: daf2 453e d40f a0bd 7a10 03bc 942e e8bb
00000340: ccbe df3c 0682 bf3d 518e 94bd 532d cc3c
00000350: 06df c1bc de3e 94bd 529f 82bd 7fb1 733e
00000360: 2572 e4bc d4d2 9ebd 461e 503d ac9d a23b
00000370: a334 93bc cb45 15be 76b7 4abd d02e eebd
00000380: b3b1 953c d387 953d 6fe0 9f3d 1846 603b
00000390: 32c7 7ebd 63b1 cbbd 6926 8f3d 3201 4cbd
000003a0: 07f8 103d b540 683c d6d4 ecbc 12ac d13d
000003b0: 6d51 4c3d 90b7 30bd e809 8f3d 1cc1 ee3c
000003c0: 4371 8dbd 3ac9 88bd 7345 0ebe dc5e 473d
000003d0: 894c 963b 6d4a 9bbd 8f25 0c3e 6d4a 8a3d
000003e0: 220f 533d 37b2 523c 93d3 8fbd 468c 95bc
000003f0: 5df5 7a3d 09e1 3f3d 4c91 16bd ff28 69bd
-0.08258434 0.07860671 -0.05150427 -0.006786403 -0.009093686 0.037075266 0.058191802 0.066668384
-0.07085724 0.06826913 0.040716693 -0.006294917 -0.02492546 -0.045605894 -0.120385975 -0.036229435
0.0034949766 0.020009452 -0.05603401 4.431729e-05 0.034181226 0.020813601 -0.044058785 0.045941424
-0.010464976 -0.07137507 -0.037758134 0.056303397 -0.00011151561 -0.043569405 0.001025409 0.048092358
-0.012069713 0.033891045 -0.08441364 0.0040079094 0.033917993 0.009068964 0.0357962 -0.058088716
0.037202135 0.055527154 -0.016079076 -0.054490607 0.01971848 0.06280667 -0.051227868 -0.000501912
0.07555031 -0.099010944 0.044063676 -0.110969245 0.021630395 -0.021274185 -0.052069586 -0.08227621
0.03891743 -0.040147126 -0.01027645 -0.08962289 -0.098314956 -0.06305383 -0.047022603 0.009648462
-0.0394657 -0.063271046 -0.13528222 -0.08450189 -0.07696529 -0.044139244 -0.003053008 0.06645601
-0.043929823 -0.037157442 -0.0703106 0.033041634 -0.07502183 -0.05357583 -0.107248835 -0.019787636
-0.05579232 -0.11776402 -0.04927376 -0.057432074 -0.021529987 -0.09518248 0.06055649 -0.10977159
-0.037886705 0.02651598 -0.05708689 -0.08148414 0.07138196 0.047991294 -0.07690753 0.05140066
0.006561328 0.061789244 -0.08000908 0.08092233 -0.06560444 -0.026796596 0.05628993 -0.036946163
-0.042110216 -0.074873686 -0.026799249 -0.11402809 -0.04592959 -0.09875532 -0.058060978 -0.059800453
-0.08708248 0.008333766 -0.0750873 0.044294354 0.06474276 0.057639796 -0.11882853 -0.048240986
-0.021734305 0.009418193 -0.029442945 -0.109468475 -0.020674966 -0.02600983 -0.114746355 -0.07606986
0.04892718 0.003386119 -0.04209464 -0.013819297 0.17008686 -0.016894521 0.040073335 -0.03503311
-0.0012609222 0.032752246 -0.028342374 0.054068122 -0.08367464 -0.22641064 0.06778253 0.062854536
0.030325864 0.06354778 0.004721062 0.090446174 -0.11511114 0.20942798 -0.010438423 -0.029130802
0.11130522 0.13516104 0.17176354 0.048252717 0.043587003 0.0077605755 -0.029667312 -0.16685052
0.09987011 -0.034094926 -0.025640095 0.09005635 -0.34391212 0.01391722 0.11987513 -0.017659105
0.033597723 0.058672 0.004328152 -0.15366909 0.07371421 0.05752906 -0.26279628 0.007518073
0.011070782 0.2054995 -0.07368196 0.029972408 0.032131143 -0.017178014 0.060448483 0.045982003
0.056829482 -0.087451436 0.07786868 -0.14594252 -0.07440073 -0.008438363 -0.03050161 0.081839465
0.062141996 0.0064934837 -0.048488535 0.097610705 0.0052417624 0.07350917 -0.027703503 -0.050905846
0.15660422 0.041640375 0.03977154 0.13262065 0.19330922 -0.07815519 -0.007999534 -0.0070856307
0.027312659 0.09350972 -0.07253707 0.024923956 -0.023665916 -0.072385535 -0.06378044 0.23798178
-0.02788646 -0.07755056 0.05081012 0.0049626436 -0.017969435 -0.14577405 -0.04949137 -0.116300225
0.01827321 0.07301297 0.07806479 0.0034221467 -0.062201686 -0.09945943 0.06989748 -0.049805827
0.035392787 0.014175584 -0.028910082 0.10237898 0.04988234 -0.04314381 0.06984311 0.029144816
-0.069063686 -0.06679006 -0.1389368 0.04867445 0.0045867604 -0.07582555 0.13686202 0.06752477
0.051528104 0.012859873 -0.070227765 -0.018255364 0.061269153 0.04684547 -0.03675966 -0.056923863

model.3.bias f4 [64]
00000000: 7dbd 94bd 0190 8fbd cfee d5bd f421 62bb
00000010: 4316 eabc 8f26 0a3d 3033 923d 46d6 3b3d
00000020: 7a6f b73d 2676 8dbd 729a fdbc 8650 6cbb
00000030: 6dec c03d d743 2cbd 7f03 ccbd ba4d 0bbd
00000040: cfa6 3bbd 13bb 10bd b4d5 163d bb08 003d
00000050: d5cf 543b 0362 05bb 4f3a 103d 8157 ac3b
00000060: 9e1b 233c 8ee6 1c3d 491f 433d 6dc6 4a3b
00000070: ea1c 883c caf7 bf3d 6f4b 483d 0679 d1bd
00000080: 4ac8 1e3e f03f b3bc c1a3 643d 43d3 7abc
00000090: 910f 0b3c a752 35bd a68c 913c 1ee4 dfbd
000000a0: 00c4 313d 3e7c 8cbb 1db5 30bd 4500 e8bd
000000b0: e8f6 083e 0cc7 3a3c 33d7 c9bd c867 1a3d
000000c0: f3f7 e13c da89 c43c 88ca 643d f7ec 273d
000000d0: f41b 6f3c c102 293b b939 a9bd e2a1 263e
000000e0: b620 debd 92ce cebc 06ad a93d a684 0cbd
000000f0: b663 8fbd 4c63 7a3d d22b 563d 054f 10bd
-0.072627045 -0.070098884 -0.1044594 -0.00345051 -0.028575068 0.03372818 0.071386695 0.045858644
0.08956809 -0.06907301 -0.030957434 -0.0036058738 0.09420095 -0.042056885 -0.09961604 -0.034009673
-0.045813378 -0.035334658 0.036824897 0.031258326 0.003247251 -0.002035261 0.035211857 0.0052594547
0.009955315 0.03830581 0.047637258 0.0030941025 0.01661535 0.09373434 0.048900064 -0.102281615
0.15506092 -0.021881074 0.05582023 -0.015309158 0.008487598 -0.044268277 0.017767262 -0.10932182
0.04339981 -0.0042872718 -0.043141473 -0.113281764 0.13375437 0.011399996 -0.09855499 0.03769663
0.027584052 0.023991514 0.05585721 0.04099747 0.014594067 0.0025788995 -0.08262963 0.16272691
-0.10846083 -0.025244985 0.08284955 -0.03430619 -0.0700144 0.061129853 0.052287884 -0.03523161

model.5.weight f4 [10, 64]
00000000: 3865 b6bb 4524 e03d 431c 3ebe c57b e7bd
00000010: d26a 5abe f8a3 05bf bd34 ed3d 1177 68be
00000020: 5ce7 2a3d a1ff d9bd db8b 71be 40bd 463e
00000030: ac2c 503d 1bff f03b 2214 6cbd 9453 863d
00000040: 27b6 033e 03cb debc b191 1cbe a3bb b63c
00000050: 2e6c aebd 6091 91be c90b 03bd f03a f33d
00000060: f92e a43d 586e 8dbd 94fc 8b3c 5c3c cc3d
00000070: a547 863d 6773 d93d 8773 8cbe 1c90 4f3c
00000080: 4e6c 93bd 7b42 0abe 0b13 0d3e 71d2 4abe
00000090: dc3d b7bc 8c2f 93bd 61bd 163e 4742 f8bd
000000a0: a495 54be 515f 4d3e 34a5 733d bbdf 6e3c
000000b0: ce58 f93c 4c8f 1a3e ed4f c63d ce67 8dbe
000000c0: 7e4f 17be 54df 1fbe 10f1 f1bd 84c3 16bd
000000d0: a110 3f3d 1c79 69be dab9 0bbe 01e2 67be
000000e0: 11b1 5d3d 5832 e0bd 6dc7 10bd 18e1 6bbe
000000f0: 310f 833e 7752 edbd 3f11 dabe b988 5dbd
00000100: 9ffc 68bd de95 22be 6be0 573e 0d3a eebc
00000110: 4c60 acbd 97ca 77bc b84a d5bd 41fe 1abe
00000120: 8437 853d f198 453e 425e 14bd 33a2 4fbe
00000130: 7f0a b33d 3a6a 213d 3c8e 0fbc 4afa 5e3d
00000140: a2c1 12be ba6a 9bbe 60da e83d c4f3 2a3e
00000150: 1fec e83c 84de 72be 155f 27be 290c 83be
00000160: 5a6d 9bbb bc40 c5bd ec8d 34be 902c 303e
00000170: ec96 02be c90e 15bd 36a1 0c3e d9cc e73d
00000180: d2a2 5ebe cb1e b4bc 03fa f4bd d2a7 f8bc
00000190: e1eb 23be 5600 20be c23b 25be 68ce ca3d
000001a0: 5073 e83d 9b9d 10be d964 573e 1ac1 b33d
000001b0: 17c6 8dbe 41a8 62bd a022 82bc 5e20 bfbd
000001c0: 5192 e53d 2c31 11be 7780 243e a864 e9bd
000001d0: f503 3e3e 54c1 d0bd 2eab 25bd 5c0c d93d
000001e0: c967 c5bd dfdd d7bd 730c 8abe 93dd f5bd
000001f0: baeb b3bd 61bd 3cbd 95af 403e 154e 2bbe
00000200: fa56 a0bd d75f 903d 84b7 9fbd 872f c53c
00000210: 9840 b33d ce79 dbbe 278c be3d 006d 2c3e
00000220: 4141 413d 8814 f0ba 5c0f 173e 22a7 e03d
00000230: 583f 34be 0f4d 3c3d fd2c 153d 64f9 ea3d
00000240: a4c9 913d c37a 4fbd 67d4 a2be 17ce 0c3e
00000250: 1489 c0bc 9ed6 95bd 77d2 08bd 8cd5 123d
00000260: 5ce0 85bd 96b3 d4bd f4d4 cb3c 8cc0 053d
00000270: 9151 cf3d 786a 5cbe 5209 0b3e 04f7 bf3d
00000280: 71ef d0bd 38ec 56be 4857 463d 3ec8 dabd
00000290: fa0b adbe 31c0 41bd 7392 bebd 2011 103d
000002a0: 1905 b03d 381e b4bd 9250 b73c 2eb1 b53d
000002b0: 1fd2 6ebd 8f14 063e 2e4b 5e3e 1d10 3c3e
000002c0: add2 b9bd 2825 403d 3b14 8f3c 8c80 93bd
000002d0: a913 59be e597 1b3e 00b7 823d bce9 70be
000002e0: bc54 42bd 7861 4cbe b6ad b6be 7e0e a8be
000002f0: 5bd4 15be 0fbd 1e3d a4b8 193e bc2a 4cbe
00000300: d90e 293a 4fe5 883d 68e5 6fbe 17f1 8ebd
00000310: 6eab ad3d 11ec 233e b439 1cbe fb18 12be
00000320: afc8 973d 6f80 1ebe 84b6 003d aae0 6bbb
00000330: 5521 20be 7e7d 7ebb 6de0 78bd 350d b2bc
00000340: f62a df3d 38ff e53d 8a82 76be f6bb 8abe
00000350: a652 c3bc a9c6 693a ade5 6dbd f5fb 54be
00000360: d66b 483e 9b9d e43d 4df9 80be 32c9 c93d
00000370: b311 033e 7a64 62be 3051 633d 7294 9b3d
00000380: 969e 413e 136c e53d 040d ed3d 95d7 54be
00000390: 5a0f bcbd e352 0abb fb35 2f3e c4da 5b3d
000003a0: 30ad 233e 58e4 c03d bc8c 0c3e 8c66 f13d
000003b0: d423 a0bb 108c 02be 1461 dabd f03a 103e
000003c0: 2a17 133e 29e3 7ebd dc21 d9bd 83bd eb3b
000003d0: a3c0 0ebe 4224 8bbe 6c8c 0b3a a597 cc3d
000003e0: 55ac 213d cdb0 dbbd 58a1 d33c c147 06be
000003f0: 1a6b d8bd a034 343d e04b aabd cf88 abbc
-0.0055662654 0.10944418 -0.18565468 -0.11302904 -0.21329811 -0.5220332 0.11582325 -0.2270167
0.041724548 -0.106444605 -0.23588507 0.1940813 0.050823852 0.0073546297 -0.057636388 0.0655891
0.12862454 -0.027196413 -0.15289952 0.022306269 -0.085167274 -0.28431225 -0.03199366 0.11876476
0.08016772 -0.06905812 0.017088212 0.0997245 0.06556634 0.106177144 -0.2743189 0.012668636
-0.07198392 -0.13501923 0.13776796 -0.1980684 -0.022368364 -0.07186803 0.1472068 -0.121220164
-0.20760208 0.20055892 0.05948372 0.014579709 0.030437853 0.15093726 0.096832134 -0.2761826
-0.14776418 -0.15612537 -0.11813557 -0.036807552 0.046646718 -0.22800106 -0.13645115 -0.22644807
0.05412394 -0.10947102 -0.035346437 -0.23035085 0.25597528 -0.115879945 -0.42591283 -0.054085467
-0.056881543 -0.15877482 0.21081702 -0.029080415 -0.08416805 -0.015123985 -0.10414642 -0.15136053
0.065047294 0.19296624 -0.036222704 -0.20276718 0.08742236 0.039407946 -0.008761939 0.054437913
-0.14331678 -0.30354863 0.11369777 0.16694552 0.028432904 -0.23717695 -0.16344865 -0.25595215
-0.0047432603 -0.09631488 -0.17632264 0.17204499 -0.12752885 -0.036391053 0.13733372 0.113183685
-0.21741799 -0.02198734 -0.119617485 -0.03035346 -0.1600795 -0.15625128 -0.16136077 0.0990265
0.11350119 -0.14122622 0.21034564 0.087770656 -0.27690193 -0.05533624 -0.015885651 -0.093323454
0.11209548 -0.14178914 0.1606463 -0.11396152 0.18556197 -0.101931244 -0.040446453 0.105980605
-0.09638936 -0.105403654 -0.26962623 -0.120051526 -0.08785196 -0.046079043 0.18816979 -0.16729005
-0.078290895 0.0704953 -0.07798675 0.024070514 0.08752555 -0.42866367 0.09304076 0.16838455
0.04718137 -0.0018316666 0.14751953 0.10969378 -0.17602289 0.045971926 0.036419857 0.11473349
0.07118538 -0.050654184 -0.31802675 0.13750492 -0.023502864 -0.073163256 -0.03340384 0.035848185
-0.06536934 -0.10385816 0.024881817 0.03265433 0.101229794 -0.2152499 0.13577774 0.09373286
-0.1020192 -0.20988548 0.04842308 -0.106827244 -0.337982 -0.04730243 -0.09305277 0.03517258
0.08594722 -0.08794826 0.022377286 0.08871685 -0.058305856 0.1309378 0.21708366 0.18365522
-0.09073386 0.046910435 0.017465701 -0.07202253 -0.21198906 0.15194662 0.06382561 -0.23526663
-0.04744409 -0.19959056 -0.35679406 -0.32823557 -0.14631788 0.03875452 0.15011841 -0.19938177
0.0006449051 0.06684362 -0.23427355 -0.06979578 0.08479963 0.16008021 -0.15256387 -0.14267342
0.07411324 -0.15478681 0.03142406 -0.0035992065 -0.15637715 -0.0038832123 -0.060760904 -0.021734813
0.10896866 0.1123032 -0.24073234 -0.27096528 -0.02384312 0.00089178473 -0.058080364 -0.20799239
0.19572386 0.11162873 -0.251902 0.09852828 0.1279972 -0.22108641 0.05549735 0.07596673
0.18908152 0.11202254 0.11574748 -0.20785363 -0.091826156 -0.0021106533 0.17110436 0.053675428
0.15984035 0.09418553 0.13725561 0.117871374 -0.0048870835 -0.12748742 -0.106630474 0.14084983
0.14364305 -0.062228356 -0.10602161 0.0071942224 -0.13940673 -0.271761 0.00053233537 0.099898614
0.03947099 -0.107270814 0.02583377 -0.1311331 -0.10567303 0.0439955 -0.08315253 -0.020939259

model.5.bias f4 [10]
00000000: d8d9 b13c eda7 98bd 78b5 573c e3f7 8c3d
00000010: f7eb 28bb 884c b4bc 55a3 c2bd 5664 5d3c
00000020: ebb2 303e b4b1 253d
0.021710321 -0.07453904 0.013165824 0.06883218 -0.0025775412 -0.02200915 -0.09503809 0.0135126915
0.17255752 0.040452674
